scripts/5574_policy.pth (torch, 121407 bytes, 14 tensors)

actor.0.weight f4 [64, 30]
0	0xbd2b88cc	-0.041878507
1	0x3ca0c09a	0.01962309
2	0x3d2a941c	0.041645154
3	0x3e6ff430	0.23432994
4	0x3e5049c6	0.20340642
5	0xbcb09573	-0.021555638
6	0x3e568779	0.20950116
7	0x3e3d8dd4	0.18511134
8	0x3d15c876	0.036568128
9	0x3ddcb4f3	0.10776701
10	0xbe285ddb	-0.16442053
11	0xbe829b01	-0.25508884
12	0xbe7055ac	-0.23470181
13	0xbdacb78b	-0.084334455
14	0xbe1080cc	-0.14111632
15	0xbe0d0e39	-0.13774957
16	0x3d88a8f1	0.06672848
17	0x3d9b24cb	0.07575377
18	0x3de8f088	0.11374003
19	0x3cb0b6df	0.021571575
20	0xbe95f8e2	-0.29291445
21	0xbe35b05d	-0.17743059
22	0xbe9d164e	-0.3068108
23	0xbdd83fb1	-0.10559023
24	0xbe7efc75	-0.24900992
25	0xbde9632d	-0.113958694
26	0x3ce21b78	0.027600989
27	0xbd989ef2	-0.074521914
28	0x3e3ba9f9	0.18326558
29	0xbe3444a8	-0.17604315
30	0x3e19ddb0	0.15025973
31	0x3e2cd6d5	0.16878827
32	0x3d035843	0.032066595
33	0xbe29fff5	-0.16601546
34	0xbdae51c0	-0.08511686
35	0xbe1552a1	-0.14582302
36	0x3e151521	0.14558841
37	0xbe1eb774	-0.1549967
38	0x3d13640d	0.035984088
39	0xbdc9cfc7	-0.098540835
40	0x3dd7402a	0.10510285
41	0x3e5bf37a	0.21479598
42	0x3ea03856	0.3129298
43	0x3e4a8282	0.19776347
44	0x3dde4d30	0.10854566
45	0x3ed27a33	0.41108856
46	0x3e58b85c	0.21164078
47	0x3d95e30e	0.07318698
48	0x3e056742	0.13027671
49	0x3e70a403	0.23500066
50	0xbd25d747	-0.040488508
51	0xbdb1defe	-0.086851105
52	0x3decfb00	0.11571312
53	0x3d8a96c6	0.06767039
54	0x3d97a216	0.07403962
55	0x3e2958db	0.16537802
56	0x3dbd8f73	0.092558764
57	0xbd87b444	-0.0662618
58	0xbd104247	-0.035219457
59	0x3dd8d7a1	0.10588003
60	0x3eb9dee1	0.36302856
61	0x3d8e66d9	0.069532104
62	0x3e5d469a	0.21608964
63	0x3d56a50f	0.052403506
64	0xbe0d316d	-0.13788386
65	0x3e20df5b	0.15710203
66	0xbb8a8af5	-0.0042279908
67	0xbd28e122	-0.04123033
68	0xbe2e2e50	-0.17009854
69	0x3d20228c	0.039095446
70	0xbd6786cf	-0.056525048
71	0xbcd5efd3	-0.026115334
72	0xbe32ed10	-0.17473245
73	0x3cc832c1	0.024438264
74	0xbc23ed99	-0.010005378
75	0xbe3493ed	-0.17634554
76	0xbe2e0242	-0.16993049
77	0xbe653b67	-0.22385941
78	0xbda4b8a6	-0.080430314
79	0xbe008052	-0.1254895
80	0x3d7150db	0.058915
81	0xbd7eeb12	-0.0622359
82	0xbe0fe74d	-0.14053078
83	0x3e2c2edd	0.16814752
84	0xbd1fde71	-0.039030496
85	0x3e004256	0.12525305
86	0x3e337c8b	0.17527978
87	0x3c833d52	0.01602045
88	0xbe08a9b7	-0.13345991
89	0xbc86dcd5	-0.016462723
90	0x3e00cc59	0.12577952
91	0x3b26d389	0.0025455675
92	0xbd912f97	-0.07089155
93	0x3cc38ad3	0.023869907
94	0xbd155136	-0.036454402
95	0xbe17782a	-0.14791933
96	0xbe0ed526	-0.13948497
97	0x3d5ca4f6	0.053868257
98	0xbd97e64d	-0.07416973
99	0xbe4926b0	-0.19643664
100	0x3e02bf57	0.12768303
101	0x3ebb797a	0.36616117
102	0x3e441845	0.19149883
103	0x3e90e94f	0.28303
104	0x3e008bb7	0.12553297
105	0x3e81e06f	0.25366542
106	0x3e2c361c	0.16817516
107	0x3e6bdd0d	0.23033543
108	0x3e1134bf	0.14180277
109	0x3d04937a	0.032367207
110	0xbe9d0e7c	-0.30675113
111	0xbe61379d	-0.21993871
112	0xbe8f3a3e	-0.27974123
113	0xbe2a6b2d	-0.16642447
114	0xbe99536d	-0.2994646
115	0xbc54166a	-0.012944797
116	0x3d286fda	0.041122295
117	0xbbc92273	-0.00613814
118	0x3baec78c	0.0053338464
119	0xbe6bf5e4	-0.23043019
120	0xbd968018	-0.07348651
121	0x3dd7a343	0.105291866
122	0xbd4304b8	-0.047611922
123	0xbd9176c1	-0.07102729
124	0xbc653f73	-0.013992178
125	0x3db36962	0.087603346
126	0xbe0c4878	-0.1369952
127	0xbda91811	-0.082565434
128	0xbe3d01b8	-0.18457687
129	0xbd777ca3	-0.060421597
130	0x3c9557f9	0.018230425
131	0xbcfb4fa0	-0.030677617
132	0x3e376d8e	0.17912886
133	0x3da8c0c4	0.08239892
134	0xbbeb907b	-0.0071888543
135	0xbcb87967	-0.022518827
136	0xbd1d2658	-0.038366646
137	0x3d650a99	0.05591831
138	0xbde3f90f	-0.111314885
139	0x3e1bbe01	0.152092
140	0x3d8c40cc	0.068482965
141	0x3eb360ec	0.35034883
142	0x3ee3198c	0.44355428
143	0x3e1a6cb8	0.15080535
144	0x3eca6b2f	0.395349
145	0x3ebab43e	0.3646564
146	0x3ee4e996	0.44709462
147	0x3ec9264d	0.39287034
148	0x3e947058	0.2899196
149	0x3e1db84e	0.15402338
150	0x3dad47f0	0.084609866
151	0x3d9bb852	0.07603516
152	0x3d6b05be	0.057378523
153	0x3db030f5	0.08603088
154	0x3e56d6f7	0.2098044
155	0x3d88eb57	0.066855125
156	0x3daafcb5	0.08348981
157	0xba8ad09e	-0.0010590737
158	0x3e5aad21	0.21355106
159	0xbd84a2c6	-0.06476359
160	0x3e9df860	0.30853558
161	0x3ddc03b1	0.107428916
162	0xbd61fe07	-0.0551739
163	0x3dd53bf4	0.10411826
164	0xbdaadef3	-0.083433054
165	0xbe18beb4	-0.14916497
166	0xbe2d388c	-0.16916102
167	0xbdd48bfa	-0.10378261
168	0xbe6682a3	-0.22510771
169	0xbe90e715	-0.28301302
170	0x3eea426c	0.457538
171	0x3eff5b22	0.49874216
172	0x3ecad272	0.39613682
173	0x3ceed9bd	0.02915656
174	0x3e91634c	0.2839607
175	0x3e212710	0.15737557
176	0xbd529d61	-0.05141962
177	0xbe267458	-0.16255319
178	0xbd8fe6f8	-0.07026476
179	0xbde8434b	-0.1134096
180	0xbcad5821	-0.021160187
181	0xbe192171	-0.14954163
182	0xbe44ce33	-0.19219284
183	0xbe465925	-0.19369943
184	0xbd0bc150	-0.034119904
185	0xbce0fac0	-0.027463317
186	0xbe4d226b	-0.2003266
187	0xbe2da225	-0.16956384
188	0x3dde6b76	0.1086034
189	0xbe2e87f3	-0.17044048
190	0x3e50e848	0.20401108
191	0xbe550689	-0.20803274
192	0x3d082b49	0.033244405
193	0xbdc98769	-0.098402806
194	0x3d609a84	0.054834858
195	0xbe2b2b23	-0.16715674
196	0x3df5914a	0.11990602
197	0xbde0e056	-0.10980289
198	0x3e43615a	0.19080105
199	0x3e46d5f9	0.19417562
200	0x3eaae57c	0.33378208
201	0xbc2ab65e	-0.010419456
202	0xbe46d352	-0.1941655
203	0xbce8fad4	-0.028439917
204	0x3da1e2c1	0.07904578
205	0xbe22a364	-0.15882641
206	0xbd005f85	-0.031341095
207	0x3d47ab0e	0.048747115
208	0x3df305e3	0.11866357
209	0x3e405bd9	0.18785037
210	0xbec46510	-0.38358355
211	0xbe37f494	-0.17964393
212	0xbe0dd03f	-0.13848971
213	0xbce43fd9	-0.027862476
214	0xbd4cef49	-0.050032888
215	0x3da3971a	0.07987805
216	0x3e0d33c6	0.13789281
217	0xbda702a3	-0.081548
218	0xbdb079c9	-0.08616979
219	0xbd56311f	-0.05229294
220	0x3e627fba	0.22119036
221	0x3e164afd	0.14677043
222	0x3d4b5334	0.049639896
223	0x3e60f018	0.21966588
224	0xbc9e0e47	-0.019293917
225	0x3e82ac2b	0.2552198
226	0xbb115119	-0.0022173582
227	0x3e40983a	0.1880807
228	0xbde8d43f	-0.11368608
229	0xbdb3321e	-0.087497935
230	0x3d53501a	0.051590063
231	0x3b41cc57	0.002957126
232	0xbd8c47a5	-0.068496026
233	0x3e68ae2e	0.22722694
234	0x3c05a285	0.008156423
235	0x3d381968	0.044946104
236	0x3e855621	0.26042274
237	0x3e03f0ea	0.1288487
238	0x3e4885f2	0.19582346
239	0x3e8e9846	0.2785055
240	0x3e70db3e	0.23521134
241	0xbd971419	-0.0737688
242	0x3cfcb812	0.03084949
243	0xbda6b58b	-0.08140095
244	0x3d3695cd	0.044576455
245	0x3e023f21	0.12719394
246	0xbdba100d	-0.09085093
247	0xbcefa7ac	-0.029254757
248	0x3dcbffad	0.09960876
249	0x3d4ead69	0.050458346
250	0xbe62bbc3	-0.22141938
251	0xbe0a8c82	-0.13530162
252	0xbd2dd51b	-0.04243956
253	0xbdc3f041	-0.09567309
254	0xbab9e2e8	-0.0014182003
255	0xbea70bb0	-0.32626104

actor.0.bias f4 [64]
0	0x3c3e3b04	0.01161075
1	0x3d3b1e8d	0.045683432
2	0xbde1dfe6	-0.11029033
3	0x3d712993	0.05887754
4	0x3e5c4c39	0.21513452
5	0xbe331691	-0.17489077
6	0xbe1cbd9d	-0.15306707
7	0xbe014d7c	-0.12627214
8	0x3e4a2dce	0.19744036
9	0xbc911b86	-0.01771332
10	0xbc397781	-0.011319996
11	0x3dc5ab44	0.09651807
12	0xbd825c54	-0.063652664
13	0xbe12a151	-0.1431935
14	0x3ca7023f	0.020386813
15	0x3e026cf3	0.12736873
16	0x3da43cad	0.080193855
17	0x3d498021	0.04919446
18	0xbd6b2966	-0.057412528
19	0xbdf8036a	-0.12110026
20	0xbdfc5dde	-0.12322591
21	0x3e396a22	0.18106893
22	0x3de8fdee	0.11376558
23	0xbdfec6e0	-0.12440276
24	0xbe10881f	-0.14114426
25	0xbe40011e	-0.18750426
26	0xbda747ff	-0.08168029
27	0xb925974d	-0.0001579199
28	0xbe49a837	-0.19693075
29	0x3d626c6f	0.05527919
30	0x3d555647	0.052084234
31	0xbbe86737	-0.0070923823
32	0x3e61bb91	0.22044207
33	0x3df03dff	0.11730575
34	0x3c1af555	0.009457906
35	0xbd8443c4	-0.06458238
36	0xbe48165a	-0.19539776
37	0x3db5420d	0.08850489
38	0xbe50d097	-0.2039207
39	0xbd902f06	-0.07040219
40	0x3e386abb	0.18009464
41	0xbd6c5dde	-0.057706706
42	0xbe3e86f1	-0.18606164
43	0x3c443bf6	0.011977186
44	0xbe0bb583	-0.1364346
45	0x3bb78535	0.0056005963
46	0x3e32e29e	0.1746926
47	0x3d0f9004	0.035049453
48	0x3cf2a814	0.029621162
49	0xbd87c17d	-0.06628702
50	0x3e382af6	0.17985138
51	0x3e446f11	0.19182993
52	0xbd4b72c1	-0.049669985
53	0xbde72152	-0.11285652
54	0xbe1dd5d9	-0.15413608
55	0x3df6d077	0.1205148
56	0xbd063a7e	-0.032770626
57	0x3d33fd62	0.043942817
58	0xbe2b6d82	-0.16740993
59	0x3d3d1def	0.046171125
60	0xbe474042	-0.19458106
61	0x3d9c8538	0.07642597
62	0xbd69dff2	-0.057098337
63	0x3dd7c669	0.105358906

actor.2.weight f4 [128, 64]
0	0x3da8dc4d	0.08245144
1	0xbe007e7a	-0.12548247
2	0x3c26fa15	0.01019146
3	0xbe604cc6	-0.21904287
4	0x3dd0fd25	0.102045335
5	0x3e0ee268	0.13953555
6	0x3d81878a	0.0632468
7	0x3e57b24d	0.2106411
8	0x3e161eed	0.14660235
9	0xbd5ac68a	-0.053411998
10	0x3dccef76	0.10006611
11	0xbd4e60fe	-0.050385468
12	0xbd94406a	-0.072388485
13	0xbc8141a2	-0.015778366
14	0x3bafda12	0.005366572
15	0x3dad6774	0.08466998
16	0xbdddb8ed	-0.108262874
17	0xbe8ba5dd	-0.2727498
18	0x3ccadbb0	0.024762958
19	0xbd4eabc3	-0.050456773
20	0x3d5623df	0.052280303
21	0xbd3e7d52	-0.046506234
22	0xbe165ab9	-0.14683045
23	0xbb02177b	-0.0019850421
24	0xbe231f1a	-0.15929833
25	0xbe9533ff	-0.29141232
26	0x3dcd4298	0.100224674
27	0x3d04c6d5	0.032416184
28	0x3c6d45e0	0.0144819915
29	0xbd373539	-0.04472849
30	0x3e000f4b	0.12505834
31	0xbe054ee0	-0.1301837
32	0x3e10b410	0.14131188
33	0x3e01f4d3	0.1269105
34	0x3b60bbb5	0.003429157
35	0xbd667e5f	-0.05627286
36	0xbcfa3fda	-0.030548025
37	0xbdcc270c	-0.09968385
38	0xbd86799c	-0.06566164
39	0xbdb32e7f	-0.08749103
40	0xbe03a8a8	-0.12857306
41	0xbd98cc72	-0.0746087
42	0xbe83bec2	-0.25731474
43	0x3e248a12	0.16068295
44	0xbe2102e1	-0.15723754
45	0x3d5cec6f	0.05393642
46	0x3d49e86f	0.04929393
47	0x3da54cd1	0.08071292
48	0x3ba1ac88	0.0049338974
49	0x3d6a496d	0.05719893
50	0x3d000f3e	0.031264536
51	0x3da776a5	0.081769265
52	0x3ce71f51	0.028213175
53	0xbdbdb0e4	-0.09262255
54	0x3beabab6	0.007163371
55	0xbeae560f	-0.34050032
56	0x3d17f79f	0.037101384
57	0x3d09db26	0.03365626
58	0x3cbc2556	0.022967022
59	0xbdb2247d	-0.08698366
60	0x3dd4235e	0.10358308
61	0x3df3ec47	0.11910301
62	0x3c1db698	0.009626053
63	0x3d9516c8	0.07279736
64	0x3e047ea4	0.12938935
65	0x3d706a85	0.058695335
66	0xbd1b45f6	-0.037908517
67	0x3d5fb1e5	0.054613013
68	0x3d8a4028	0.06750518
69	0xbe0ceae7	-0.13761483
70	0xbd956d55	-0.07296244
71	0xbc9a379b	-0.018825343
72	0x3d2e0cdd	0.042492736
73	0xbca8d714	-0.02061037
74	0x3dbc4017	0.09191912
75	0x3de4fa6a	0.11180575
76	0xbd89aecd	-0.06722794
77	0x3e34604d	0.17614861
78	0xbd973e7b	-0.07384964
79	0x3d8ff7d9	0.07029695
80	0xbdaf6176	-0.08563511
81	0xbcdb867b	-0.026797524
82	0xbdd9f906	-0.106432006
83	0xbd125920	-0.035729527
84	0xbde3b22e	-0.111179695
85	0xbd36d21f	-0.04463398
86	0x3e00cd2a	0.12578264
87	0xbcd37575	-0.025812844
88	0x3ec9a3c9	0.3938277
89	0x3dff8204	0.124759704
90	0x3e09b834	0.13449174
91	0xbe20cb76	-0.15702614
92	0x3de5ff1f	0.11230301
93	0xbca56059	-0.020187544
94	0x3e14ab16	0.14518389
95	0x3e60e1cc	0.21961135
96	0x3dd155e0	0.102214575
97	0xbdbed0d4	-0.093171746
98	0xbbbe55a5	-0.0058085495
99	0xbdcce1b9	-0.10003991
100	0xbdc6628f	-0.09686767
101	0xbd900828	-0.07032806
102	0xbb3539ee	-0.0027652937
103	0xbdbf28f1	-0.09333981
104	0xbbf8a87d	-0.0075884447
105	0xbc7a56fc	-0.015279528
106	0x3e28f52c	0.16499776
107	0xbdd5af4a	-0.10433824
108	0xbc4430d5	-0.011974533
109	0xbdcb9d5e	-0.09942125
110	0x3d34a621	0.044103745
111	0x3c88b7dd	0.016689235
112	0x3a385275	0.000703133
113	0x3c785d5e	0.015158979
114	0x3d886d01	0.06661416
115	0xbd685ddf	-0.056730147
116	0xbcb5f0b5	-0.022209505
117	0x3c9f456f	0.019442288
118	0xbc998845	-0.018741736
119	0x3e07e932	0.1327255
120	0xbcf65c5a	-0.030073334
121	0x3cd2d420	0.025735915
122	0xbcebde71	-0.028792592
123	0xbc965ec6	-0.018355738
124	0xbeda825b	-0.42677578
125	0x3d300bba	0.042979933
126	0xbe750910	-0.23929238
127	0xbdfe9c2b	-0.124321304
128	0x3d9323c5	0.07184557
129	0xbd2afca1	-0.041744832
130	0x3e56a915	0.20962937
131	0xbd03b19c	-0.032151803
132	0xbcbcfa97	-0.02306871
133	0x3e27ee8e	0.16399595
134	0x3e5d6aad	0.21622725
135	0xbe38d779	-0.18050946
136	0xba552954	-0.00081314635
137	0xbe06a46d	-0.13148661
138	0xbb4b020d	-0.0030976564
139	0xbd57eeeb	-0.052718084
140	0x3cd534e5	0.026026199
141	0x3e0652ee	0.13117573
142	0xbd9739c0	-0.07384062
143	0x3dee7621	0.11643625
144	0x3c22f70e	0.009946598
145	0xbd43147a	-0.04762695
146	0xbca13571	-0.019678803
147	0x3cb2d8c6	0.021831881
148	0x3cdb2170	0.026749343
149	0x3e0ad542	0.13557914
150	0x3cde42c2	0.027131442
151	0x3e1813e2	0.14851335
152	0x3d714a31	0.058908645
153	0x3e15ee8b	0.14641778
154	0x3d734ec9	0.059401307
155	0xbde2ee98	-0.110806644
156	0x3e5908bb	0.21194737
157	0xbe0d0afd	-0.13773723
158	0x3d70866d	0.05872195
159	0x3bc09a2f	0.005877755
160	0xb80e3d66	-3.391262e-05
161	0x3e3793bb	0.17927448
162	0x3db759ad	0.08952651
163	0xbd528e07	-0.05140498
164	0x3db6404b	0.08898982
165	0xbda47be7	-0.08031445
166	0xbe16dc44	-0.14732462
167	0x3dc63e39	0.09679837
168	0x3d98341f	0.07431816
169	0x3b9246fe	0.0044640293
170	0x3ec9f6a9	0.39446
171	0x3ce0c58c	0.027437948
172	0x3df32fef	0.11874377
173	0x3bea90ba	0.007158366
174	0x3c9f4b06	0.019444954
175	0xbd12433a	-0.035708643
176	0xbde95da1	-0.113948114
177	0x3e0adf7e	0.13561818
178	0xbd932b16	-0.07185952
179	0xbd89e7b6	-0.067336485
180	0x3db7ebec	0.089805454
181	0x3e32c60d	0.17458363
182	0x3d0a3ae4	0.03374757
183	0x3d3594aa	0.04433123
184	0xbdc8af81	-0.097991
185	0x3d5dd7cd	0.05416088
186	0x3d79792a	0.060906567
187	0x3d337290	0.043810427
188	0xbc82eddd	-0.015982563
189	0x3c8f7b61	0.017514886
190	0xbdb88225	-0.09009198
191	0x3da96613	0.08271422
192	0xbdb5b6a9	-0.0887273
193	0xbdc300fd	-0.09521673
194	0x3e08aae1	0.13346435
195	0xbd4a746e	-0.049427442
196	0x3cdd3a70	0.027005404
197	0x3ba371b8	0.0049879216
198	0x3e1f50e0	0.15558195
199	0xbe099452	-0.13435486
200	0xbd03f538	-0.03221628
201	0x3d87c5fb	0.06629559
202	0x3d504427	0.050846245
203	0x3e13e9d8	0.14444673
204	0x3e09ad47	0.13445006
205	0xbc5f58b8	-0.013631992
206	0xbe2b8b22	-0.16752294
207	0x3c19234b	0.009346793
208	0x3da1500f	0.07876598
209	0xbcc94a0c	-0.024571441
210	0xbe09b74e	-0.13448831
211	0x3d8f0c68	0.06984788
212	0xbdc10d0d	-0.09426317
213	0x3dfda09e	0.12384151
214	0xbdde5c7b	-0.10857483
215	0xbe00062b	-0.12502353
216	0x3e203df8	0.15648639
217	0x3e08d29c	0.13361591
218	0x3e088672	0.13332537
219	0x3c32cbdc	0.010912862
220	0x3d9afbab	0.07567533
221	0x3c93d9c3	0.018048173
222	0x3d9d577a	0.076827005
223	0x3df399d7	0.11894577
224	0x3e0da959	0.13834132
225	0xbe129cc2	-0.14317611
226	0x3de9f7f2	0.11424245
227	0x3e056495	0.1302665
228	0xbd10de83	-0.035368454
229	0xbdb1f241	-0.086887844
230	0xbea66b54	-0.3250376
231	0x3dd1f7c1	0.102523334
232	0xbc0cc3c3	-0.008591595
233	0xbd9b023e	-0.07568787
234	0x3e8c11f2	0.2735744
235	0xbca2738e	-0.019830491
236	0xbba7cc7b	-0.0051208115
237	0x3cbc8ea5	0.023017237
238	0x3d5406d9	0.051764343
239	0x3ce7e5b8	0.02830778
240	0xbe1c9074	-0.1528948
241	0x3d3c523c	0.045976862
242	0x3d281982	0.04103995
243	0x3bfb5dfe	0.007671117
244	0x3e0786c7	0.13235007
245	0x3d08a096	0.03335627
246	0x3d9792eb	0.07401069
247	0xbd2e68de	-0.042580478
248	0x3d2889b9	0.041146968
249	0x3e028784	0.12747008
250	0xbd91f6c2	-0.071271434
251	0x39933925	0.000280806
252	0xbe0da7fa	-0.13833609
253	0x3d10bbad	0.03533523
254	0xbdca5d12	-0.09881033
255	0x3d50d63c	0.05098556

actor.2.bias f4 [128]
0	0xbdaea607	-0.08527761
1	0x3df54fb8	0.11978096
2	0x3d8f85cd	0.07007942
3	0x3d045693	0.032309126
4	0x3d6487bc	0.05579351
5	0x3d5094a1	0.050922994
6	0xbd0cac43	-0.03434397
7	0xbbc416e7	-0.0059841755
8	0x3dfdf7c9	0.12400777
9	0xbcd1c834	-0.02560816
10	0xbe05ac44	-0.13053995
11	0xbcb0eb9f	-0.021596728
12	0xbdde6f66	-0.10861091
13	0x3e049c5d	0.12950273
14	0xbda3ae6f	-0.07992255
15	0x3e04141b	0.12898295
16	0xbbc16b23	-0.0059026643
17	0xbd2f0839	-0.04273245
18	0xbb89f1e7	-0.004209745
19	0xbd8b0105	-0.06787304
20	0xbde29561	-0.11063648
21	0x3dd161c4	0.102237254
22	0x3d5674b2	0.052357383
23	0x3c0042c7	0.007828421
24	0x3d72bf32	0.05926437
25	0x3cf4f646	0.029902589
26	0x3e0773ec	0.13227814
27	0x3dbc686d	0.09199605
28	0x3de38058	0.11108464
29	0x3dee5959	0.116381355
30	0xbe06c479	-0.13160886
31	0xbe1ff667	-0.15621339
32	0x3e073ac1	0.13206007
33	0x3cc7b46d	0.024378026
34	0x3d9e90af	0.0774244
35	0x3d2edf1a	0.042693235
36	0xbd014f39	-0.031569693
37	0x3d0e6e42	0.03477312
38	0xbe01ad08	-0.12663662
39	0xbd34aed4	-0.04411204
40	0x3d8bd329	0.06827385
41	0x3e53bc31	0.20677258
42	0xbd59ed0c	-0.05320458
43	0x3d847ca1	0.064690836
44	0xbdc73738	-0.09727329
45	0xbe07a225	-0.13245447
46	0x3dd9bec8	0.10632092
47	0xbd050491	-0.032475058
48	0xbe39e6bf	-0.18154429
49	0x3e1be9cf	0.1522591
50	0x3d9ab6d8	0.07554406
51	0xbdb13c41	-0.08654071
52	0x3d9e0c46	0.07717185
53	0x3de86762	0.11347844
54	0xbd6e5311	-0.058184687
55	0x3e04d5df	0.1297221
56	0x3e0e3028	0.13885558
57	0x3d01d0bb	0.0316932
58	0x3cfa88b8	0.03058277
59	0x3de27230	0.11056936
60	0x3d689452	0.056782074
61	0x3d43da5d	0.04781567
62	0x3bcc1ec7	0.006229255
63	0x3ca26973	0.019825673
64	0xbbea3b9a	-0.0071482183
65	0x3dcce812	0.100052014
66	0x3d4a78a5	0.04943146
67	0x3da86e38	0.082241476
68	0x3da49fb9	0.08038277
69	0xbde9a95e	-0.11409257
70	0xbd954dbd	-0.07290218
71	0xbca2b10a	-0.01985981
72	0xbd5e4470	-0.054264486
73	0xbdc9e4db	-0.09858104
74	0x3e6fcbc3	0.23417573
75	0x3ddc8944	0.10768369
76	0x3db2f936	0.087389395
77	0x3d696986	0.0569854
78	0x3ce71431	0.02820787
79	0x3cc2caea	0.023778398
80	0xbdbe76c1	-0.09299994
81	0xbae8f838	-0.001777417
82	0x3dea9110	0.1145345
83	0xbdf55464	-0.11978987
84	0x3cd07adc	0.025449209
85	0x3dc35e5d	0.09539483
86	0xbe02b765	-0.12765272
87	0x3df6269d	0.12019084
88	0xbdcfde45	-0.101498164
89	0x3df93f11	0.12170232
90	0x3d1e3fbb	0.038634997
91	0x3b98ba44	0.0046608765
92	0xbc356a26	-0.011072671
93	0xbd7e113c	-0.062028155
94	0x3d45f1b7	0.04832622
95	0x3c70791a	0.01467731
96	0x3ccc40f4	0.024933316
97	0xbd5cd879	-0.053917382
98	0x3ddaefe3	0.10690286
99	0xbc8916b3	-0.016734457
100	0xbdbb8a98	-0.09157294
101	0x3d6621ae	0.056184463
102	0xbd06c99a	-0.032907106
103	0x3d8d85ad	0.06910262
104	0x3db64302	0.088994995
105	0x3d6e8911	0.058236185
106	0x3d7e8472	0.06213803
107	0xbdf67c40	-0.120354176
108	0xbe0617f1	-0.1309507
109	0x3c84e607	0.016222967
110	0xbd957062	-0.07296826
111	0x3d1e2f25	0.03861918
112	0x3dce4cc1	0.100732334
113	0xbce75173	-0.02823708
114	0xbd980e1e	-0.07424568
115	0xbdf1303f	-0.1177678
116	0x3db29282	0.087193504
117	0xbd50fa78	-0.051020116
118	0x3d86fc80	0.06591129
119	0xbc6d296c	-0.014475208
120	0xbd223c6b	-0.0396084
121	0xbdd60f29	-0.1045211
122	0x3d65e15b	0.05612312
123	0x3e10cdf6	0.14141068
124	0x3cf78967	0.030216886
125	0x3e1de154	0.15417987
126	0xbd9c3ec3	-0.07629158
127	0xbd990954	-0.07472482

actor.4.weight f4 [32, 128]
0	0xbdd054f5	-0.10172454
1	0x3da1800e	0.078857526
2	0x3d90e47f	0.07074832
3	0x3da9120f	0.082553975
4	0x3e0088e7	0.12552224
5	0x3c60e5ba	0.013726646
6	0x3eb0ece0	0.3455572
7	0x3dcc4eb7	0.09975951
8	0xbd7abda4	-0.06121601
9	0xbe0a66e6	-0.13515815
10	0xbd2d3946	-0.04229095
11	0xbeb5ce71	-0.35509065
12	0x3e85c23c	0.26124752
13	0xbe1fd8e8	-0.15610087
14	0x3d98b67e	0.074566826
15	0x3cce2b51	0.02516714
16	0xbd4337f6	-0.04766079
17	0x3e7388c7	0.23782645
18	0xbd4aec12	-0.04954154
19	0xbe22f141	-0.15912344
20	0xbe4bc8ce	-0.1990082
21	0xbd43e633	-0.047826957
22	0xbc81295d	-0.015766794
23	0xbe005ddf	-0.12535809
24	0xbce61954	-0.02808825
25	0xbd75c380	-0.060000896
26	0x3b344672	0.002750781
27	0x3da33cfd	0.07970617
28	0x3d1ce8d9	0.038308
29	0xbd168f78	-0.036757916
30	0x3d07e2fb	0.03317545
31	0xbd8a26a9	-0.06745655
32	0xbd6d715b	-0.057969432
33	0x3da388a4	0.079850465
34	0xbd3461db	-0.044038635
35	0x3e25e567	0.16200791
36	0xbf0c69a6	-0.54848707
37	0xbbf38976	-0.007432158
38	0xbe51acec	-0.2047612
39	0x3df58228	0.11987716
40	0x3e05f499	0.13081588
41	0x3ba5729c	0.005049063
42	0x3e2f63c1	0.17127897
43	0x3e034dc0	0.12822628
44	0x3e2967b9	0.16543473
45	0xbd84fff2	-0.0649413
46	0x3d268152	0.040650673
47	0x3da670f3	0.08127012
48	0xbf1e73b3	-0.61895293
49	0x3d8b0923	0.06788852
50	0x3df7dc01	0.12102509
51	0xbe4596a6	-0.19295749
52	0x3de1b9a8	0.11021739
53	0xbdb8d4f5	-0.09024993
54	0xbdc4bfcf	-0.09606897
55	0x3ca22e00	0.019797325
56	0x3dce1094	0.10061756
57	0x3dc2f3a3	0.09519126
58	0x3cb1be37	0.021697147
59	0x3d3150e6	0.04329004
60	0x3e2122b3	0.15735893
61	0x3caa9156	0.020821255
62	0x3d2c1992	0.042016573
63	0x3e39c792	0.18142536
64	0x3c8eb83c	0.017421834
65	0x3d73438c	0.05939059
66	0xbd75f41c	-0.060047254
67	0xbdfbdc97	-0.122979335
68	0xbe1dbc46	-0.15403852
69	0xbe31a128	-0.17346632
70	0x3d30f871	0.043205682
71	0x3de00ec5	0.10940317
72	0x3e5f08f2	0.21780756
73	0x3de01e24	0.10943249
74	0x3da47fe8	0.08032209
75	0xb9d24a33	-0.00040109604
76	0xbe5d9ed7	-0.21642624
77	0xbe5a141e	-0.21296737
78	0xbceb9da1	-0.028761687
79	0xbd863b5b	-0.0655429
80	0x3e497ff9	0.19677724
81	0xbeb6e34f	-0.35720298
82	0xbe3f60d9	-0.18689288
83	0x3e0095df	0.12557171
84	0x3def57ef	0.11686694
85	0x3dc23cbd	0.09484241
86	0xbbd5d199	-0.00652523
87	0x3d4b84b4	0.049687102
88	0x3d61b34f	0.055102643
89	0x3d8cd5d0	0.06876719
90	0x3e238add	0.15970941
91	0x3dd95e19	0.10613651
92	0x3e44594f	0.19174694
93	0x3f0c5b12	0.5482646
94	0xbe1a3f58	-0.15063226
95	0xbd7bad19	-0.061444376
96	0xbeaf6928	-0.34259915
97	0xbdb01c11	-0.08599103
98	0x3b6c6b07	0.0036074535
99	0xbd916d85	-0.07100967
100	0xbe24016c	-0.16016167
101	0x3dc7c19b	0.09753724
102	0x3d8f063c	0.06983611
103	0x3e31f498	0.17378461
104	0x3e0f27ec	0.13980073
105	0xbd393677	-0.045217957
106	0xbe070369	-0.13184895
107	0x3d25b559	0.04045615
108	0x3d98e71f	0.07465958
109	0xbc8b1e63	-0.016982263
110	0x3ca6c1b4	0.020356037
111	0xbeb89fc5	-0.36059394
112	0x3d379014	0.044815138
113	0x3e47f4e6	0.19527015
114	0x3e356776	0.17715248
115	0x3e968dfd	0.29405203
116	0x3d11c2c7	0.035586145
117	0x3daefb5e	0.08544038
118	0x3d843c27	0.06456786
119	0x3e2c46d6	0.16823897
120	0x3e09cfd5	0.13458188
121	0xbd57d280	-0.052690983
122	0x3e734c89	0.23759665
123	0x3d70605b	0.05868564
124	0x3d83d96f	0.064379565
125	0xbc9fd8a0	-0.019512475
126	0xbf19a1f9	-0.60012776
127	0x3c171ebd	0.009223637
128	0x3dcb83ff	0.09937286
129	0xbd71bb6d	-0.059016634
130	0xbe323ecb	-0.17406766
131	0xbe151acf	-0.14561008
132	0xbd851d9c	-0.06499788
133	0x3d410bfe	0.047130577
134	0xbea67cd8	-0.32517123
135	0xbdcbff0c	-0.09960756
136	0x3d9dbb14	0.07701698
137	0x3d57a6f9	0.052649472
138	0x3dfb6bcd	0.12276421
139	0x3e90765d	0.28215304
140	0xbe8907e7	-0.26763842
141	0x3e220a97	0.15824352
142	0x3d4fa7b4	0.050697044
143	0xbb50a666	-0.0031837462
144	0xbd9bffa9	-0.07617123
145	0xbe8a118c	-0.26966512
146	0xbd9d6cef	-0.07686793
147	0x3e44a922	0.19205144
148	0x3e2bee57	0.16790138
149	0x3e365d31	0.17808987
150	0xbcb478af	-0.022030203
151	0x3e21dc84	0.15806776
152	0x3dbdc5cb	0.09266242
153	0x3d439261	0.04774702
154	0xbd615f63	-0.05502261
155	0xbd967724	-0.07346943
156	0x3dd3b94d	0.10338078
157	0x3e11da97	0.14243542
158	0xbcd7a63e	-0.026324388
159	0x3db4ae13	0.088222645
160	0x3e0c7838	0.13717735
161	0xbce4dfed	-0.027938807
162	0x3de94288	0.11389643
163	0xbd064950	-0.03278476
164	0x3f03199b	0.51210946
165	0x3de629a2	0.112384096
166	0x3e9e317f	0.30897138
167	0xbe2593eb	-0.16169707
168	0xbd3e2256	-0.046419464
169	0x3e08e632	0.13369063
170	0xbe212f67	-0.15740739
171	0x3d498872	0.04920239
172	0xbdeaba8e	-0.11461364
173	0x3e29a2b2	0.1656597
174	0x3e051174	0.12994939
175	0xbd33733c	-0.043811068
176	0x3f269de0	0.6508465
177	0xbdb9fbbb	-0.09081217
178	0xbb5da5e4	-0.0033820802
179	0x3e3a5973	0.18198185
180	0xbe147a88	-0.14499867
181	0x3d889377	0.06668752
182	0x3e385714	0.18001968
183	0x3df8f714	0.121565014
184	0x3e044e98	0.12920606
185	0xbdc341f8	-0.09534067
186	0xbe167d29	-0.14696182
187	0x3d40c708	0.04706481
188	0xbe089fe0	-0.13342237
189	0xbd945c50	-0.0724417
190	0xbdd4264a	-0.103588656
191	0xbe425a07	-0.18979655
192	0x3da54e8b	0.080716215
193	0x3dd05d3c	0.10174033
194	0x3e061f9b	0.13097994
195	0x3dabbe71	0.08385933
196	0x3e470021	0.19433643
197	0x3e74ce1c	0.2390675
198	0xbde4a377	-0.11163991
199	0xbde9066a	-0.113781765
200	0xbde0e16a	-0.10980494
201	0xbe070edf	-0.13189267
202	0x3d0e4e37	0.03474256
203	0xbdb66eef	-0.08907878
204	0x3e5f8308	0.21827328
205	0x3e7eaf5d	0.24871583
206	0x3d542a9f	0.05179846
207	0x3dd265c1	0.10273314
208	0xbe3cf62e	-0.18453285
209	0x3eae324a	0.34022743
210	0x3e2fae2e	0.17156288
211	0x3c4fd1b4	0.012684274
212	0xbe086c4a	-0.13322559
213	0x3dd83104	0.10556224
214	0xbca9f4c9	-0.020746605
215	0x3d964bcc	0.07338676
216	0xbe10a356	-0.14124808
217	0xbd976644	-0.073925525
218	0xbe1f240c	-0.15541095
219	0x3db8b988	0.09019762
220	0xbe592755	-0.2120641
221	0xbf0c3d14	-0.547807
222	0x3e325fe7	0.17419396
223	0x3dc26153	0.09491219
224	0x3e99a899	0.30011442
225	0x3e061ff5	0.13098128
226	0xbc4c5e7f	-0.0124737015
227	0x3e07b88d	0.13253994
228	0x3e421606	0.18953714
229	0xbbb313e5	-0.005465018
230	0xbe5da9b0	-0.21646762
231	0xbcb2d65d	-0.021830732
232	0xbda701e6	-0.08154659
233	0x3e10ac23	0.14128165
234	0x3e1bd020	0.15216112
235	0x3d1f28a9	0.038857136
236	0xbe68f92c	-0.22751302
237	0xbd3e614e	-0.046479516
238	0x3ba8e7a5	0.0051545673
239	0x3e53f1cf	0.20697711
240	0x3cb9929a	0.022652913
241	0xbe323ab1	-0.17405201
242	0xbe61b948	-0.22043335
243	0xbe51871a	-0.20461693
244	0x37db08af	2.6110878e-05
245	0x3cacfcd6	0.021116655
246	0xbd3b3b96	-0.045711122
247	0xbe2d9eb4	-0.16955072
248	0xbe07d3f3	-0.13264446
249	0x3c4edc67	0.01262579
250	0xbe49380a	-0.19650283
251	0x3c26cf4a	0.0101812575
252	0xbd882f6e	-0.066496715
253	0x3dbcf879	0.0922708
254	0x3f145b68	0.57951975
255	0x3cf698c5	0.030102143

actor.4.bias f4 [32]
0	0x3daba36a	0.08380778
1	0x3dd346f3	0.10316267
2	0x3d02e1da	0.03195367
3	0xbdc0f9c3	-0.09422638
4	0x3d9d452e	0.076792106
5	0xbd8a0bd4	-0.06740537
6	0xbd1454cc	-0.03621368
7	0xbd4ea4cd	-0.050450135
8	0xbc709f8e	-0.014686478
9	0xbaf88c51	-0.0018962716
10	0x3c0f8ca1	0.008761556
11	0x3d8bd475	0.06827632
12	0xbda9a9ab	-0.08284315
13	0xbd682eba	-0.056685187
14	0xbc99fc50	-0.01879707
15	0x3dfe4be4	0.12416819
16	0x3df273ee	0.11838518
17	0x3d94560f	0.07242977
18	0xbce0031a	-0.027345229
19	0xbdb3cee1	-0.087796934
20	0x3daa91d3	0.08328595
21	0x3d95ccf6	0.07314484
22	0x3c103d3a	0.00880366
23	0x3de25322	0.110510126
24	0xbd6e6b2e	-0.058207683
25	0xbd927923	-0.07152011
26	0xbd04fe3c	-0.03246902
27	0x3df4e1cf	0.11957132
28	0xbc9e3546	-0.019312512
29	0x3c056e25	0.008143936
30	0x3ddeafb7	0.10873359
31	0x3d6284d2	0.05530245

actor.6.weight f4 [1, 32]
0	0x3e1dc43b	0.15406887
1	0xbe682f72	-0.22674349
2	0x3e8fe371	0.28103212
3	0xbd49fd99	-0.049314115
4	0xbe95065b	-0.2910641
5	0xbf016524	-0.50544953
6	0x3e9f6647	0.3113272
7	0x3e2141e0	0.15747786
8	0x3e502b3f	0.20328997
9	0xbe2904e3	-0.1650577
10	0xbd44b158	-0.04802069
11	0x3e4d1e1c	0.20031017
12	0x3dd3a8f7	0.10334962
13	0xbe978855	-0.295962
14	0xbedd6d78	-0.4324758
15	0xbe80d182	-0.25159842
16	0xbe9fa67b	-0.31181702
17	0x3e33dab8	0.17563903
18	0x3e89b46a	0.26895458
19	0x3d27a6cc	0.040930554
20	0xbecb7ab4	-0.39742053
21	0x3e9da11d	0.30786982
22	0x3f085a2e	0.53262603
23	0xbe428f45	-0.18999965
24	0x3ea55312	0.3228994
25	0xbd345799	-0.044028852
26	0xbe14c6d6	-0.14528975
27	0xbe57b418	-0.21064794
28	0x3e7a4d27	0.24443494
29	0x3e141962	0.14462808
30	0xbe8b6a4d	-0.2722954
31	0x3e814641	0.25248912

critic.0.weight f4 [64, 30]
0	0xbe456a0d	-0.19278736
1	0x3c876018	0.016525313
2	0xbe88160f	-0.2657933
3	0xbd8c5593	-0.068522595
4	0xbd6064cd	-0.05478363
5	0xbe75a141	-0.23987295
6	0xbe84fdfd	-0.25975028
7	0xbd547a0e	-0.051874213
8	0x3d1f1662	0.038839705
9	0xbde3f821	-0.11131311
10	0xbdfcac0f	-0.12337505
11	0xbd11fb99	-0.035640333
12	0x3d024051	0.03179962
13	0x3dd4b031	0.10385168
14	0x3d55aff1	0.052169744
15	0x3e7093a3	0.23493819
16	0xbd07341b	-0.033008676
17	0x3d112202	0.035432823
18	0x3eb21ed9	0.3478916
19	0x3e0127f6	0.126129
20	0xbdc1a5bf	-0.09455442
21	0xbe141397	-0.14460598
22	0xbe5c8f22	-0.21538976
23	0xbe6a3df4	-0.22875196
24	0xbe2a746e	-0.16645977
25	0xbc351952	-0.0110534
26	0xbe48f630	-0.19625163
27	0xbd02f083	-0.03196765
28	0xbd8c9164	-0.068636686
29	0xbe36d269	-0.17853703
30	0xbe478d98	-0.19487607
31	0xbe64b931	-0.2233627
32	0xbe0d528c	-0.1380102
33	0xbe48c5ef	-0.19606756
34	0x3ded9a5a	0.11601706
35	0x3dc4291b	0.09578153
36	0xbd234817	-0.039863672
37	0xbcf88910	-0.030338794
38	0x3d80833e	0.062750325
39	0x3dddbb7a	0.10826774
40	0xbed65602	-0.41862494
41	0xbeb6d0c1	-0.35706142
42	0xbda2c0ca	-0.07946928
43	0xbddf3fe2	-0.109008566
44	0xbd0c35a3	-0.03423084
45	0xbb9a6d65	-0.004712748
46	0xbdaafddd	-0.08349202
47	0x3e3f14df	0.18660305
48	0x3e1b87ed	0.1518857
49	0xbdd0c4b0	-0.10193765
50	0xbece0c21	-0.4024363
51	0xbde41526	-0.11136846
52	0xbe8ada10	-0.27119493
53	0xbc8b684f	-0.017017512
54	0x3e23cc64	0.15995938
55	0x3e437296	0.1908668
56	0x3e75a3cf	0.2398827
57	0x3e3ade84	0.18248945
58	0x3ed85b45	0.42257133
59	0x3e4ebc53	0.20189027
60	0x3efd67e9	0.4949334
61	0x3e94f472	0.29092747
62	0x3df9ef38	0.122038305
63	0x3dde2842	0.10847522
64	0x3d41d3c7	0.047321107
65	0xbdd16ae4	-0.10225466
66	0x3db2e02a	0.08734162
67	0x3d98ce55	0.0746123
68	0x3d539bbf	0.051662203
69	0xbd8249f1	-0.063617595
70	0xbe69775c	-0.22799438
71	0xbe566512	-0.20936993
72	0xbe9ba656	-0.30400342
73	0xbe3a3013	-0.18182401
74	0xbe4d8738	-0.20071113
75	0xbd09c98e	-0.033639483
76	0xbd75b6c1	-0.05998874
77	0x3e0f40b4	0.13989526
78	0xbe171298	-0.14753187
79	0x3e2a4607	0.16628276
80	0x3e2ef645	0.17086132
81	0xbc816ec2	-0.015799884
82	0xbdfb04bf	-0.122567646
83	0x3e032002	0.12805179
84	0xba160b00	-0.0005723685
85	0x3d92f11f	0.071748964
86	0xbdac8ad7	-0.08424919
87	0x3e57a479	0.21058835
88	0x3d21189b	0.039330106
89	0xbe06a78b	-0.1314985
90	0xbe377802	-0.17916873
91	0x3ea2acfe	0.31772608
92	0xbbee864d	-0.0072791935
93	0x3e37c019	0.17944373
94	0x3e6b0312	0.2295039
95	0x3ce47a86	0.027890455
96	0xbdb30201	-0.087406166
97	0x3e6871ab	0.22699611
98	0xbdc90cb3	-0.09816875
99	0xbe3468c4	-0.1761809
100	0xbe64e569	-0.22353138
101	0xbe318503	-0.17335896
102	0xbcc0ad91	-0.023520263
103	0xbce0b28e	-0.027428892
104	0x3e4eaf2c	0.2018401
105	0xbdb922fd	-0.090398766
106	0x3d5166cf	0.051123437
107	0x3db17660	0.08665156
108	0xbdb5433e	-0.08850716
109	0xbda8ec6a	-0.082482174
110	0xbeb52a4c	-0.35383832
111	0xbee13ede	-0.43993276
112	0xbe5dd1b9	-0.21662034
113	0xbe11a777	-0.14224039
114	0x3cf112a8	0.029427841
115	0x3df79eb1	0.12090815
116	0x3ec805a0	0.39066792
117	0x3ea3f5b0	0.32023382
118	0x3f04baec	0.5184772
119	0x3ee8e879	0.45489863
120	0x3ec330af	0.3812308
121	0xbe00e7f0	-0.12588477
122	0x3d432c4e	0.047649674
123	0xbdc69af4	-0.09697524
124	0x3d90741e	0.070533976
125	0x3df8a5e3	0.121410154
126	0xbe2c310a	-0.16815582
127	0xbd482382	-0.048861988
128	0x3dca6211	0.09881986
129	0xbe043d11	-0.1291392
130	0xbf237c90	-0.6386194
131	0xbf02004a	-0.5078169
132	0xbe503347	-0.20332061
133	0xba3514d4	-0.00069077057
134	0x3e1b0ba5	0.15141161
135	0x3e24c1c2	0.16089538
136	0x3ddc0624	0.10743359
137	0x3e59729c	0.21235126
138	0x3db3d2f2	0.08780469
139	0x3d990213	0.07471099
140	0xbe687a50	-0.22702909
141	0xbe547428	-0.20747435
142	0xbcda5a7a	-0.02665447
143	0xba025b5e	-0.0004972721
144	0x3d9a9333	0.07547607
145	0x3dc96bee	0.09835039
146	0xbe13f6c6	-0.14449605
147	0xbd67c2ce	-0.056582265
148	0xbebc3aad	-0.36763516
149	0xbe0be950	-0.1366322
150	0xbe7e9a5e	-0.24863574
151	0xbd4f09f9	-0.05054662
152	0xbe098b1f	-0.13431977
153	0x3bc5bf35	0.0060347565
154	0xbd0560de	-0.032563083
155	0xbdc3e26c	-0.09564671
156	0xbd9f4d34	-0.07778397
157	0x3d905c39	0.0704884
158	0x3dc6832d	0.096929885
159	0xbcda3447	-0.026636256
160	0xbd9e74b3	-0.07737102
161	0xbd985e79	-0.07439894
162	0x3d0f4034	0.03497334
163	0x3d242e15	0.04008301
164	0xbe05c07a	-0.13061705
165	0xbc1b59fe	-0.009481905
166	0xbe1ac05c	-0.15112442
167	0xbd4bbbb4	-0.049739555
168	0xbc3083fa	-0.010773653
169	0xbdb7180e	-0.08940135
170	0xbdce84c2	-0.10083915
171	0xbe808965	-0.25104824
172	0xbd378b5e	-0.044810645
173	0xbe1a084d	-0.15042229
174	0xbe485d54	-0.19566852
175	0xbd9d73ed	-0.07688127
176	0x3d87bb6e	0.06627546
177	0x3d1a505a	0.037674285
178	0x3e5b4fc1	0.21417142
179	0x3d4b1e1e	0.04958927
180	0xbe5bad45	-0.21452816
181	0xbe075077	-0.13214289
182	0x3e0247ca	0.12722698
183	0x3cf6611c	0.030075602
184	0xbe4544f5	-0.19264586
185	0x3ddba881	0.10725499
186	0xbe07fecb	-0.1328079
187	0xbc84a07e	-0.01618981
188	0x3d93e87d	0.07222078
189	0xbdb53895	-0.08848683
190	0x3ee7f00f	0.45300338
191	0x3dfae8f0	0.122514606
192	0x3ea9ef07	0.33190176
193	0x3e54f216	0.20795473
194	0x3e0e7854	0.13913089
195	0xbdcbe75c	-0.09956238
196	0xbe55e420	-0.20887804
197	0xbd8942f4	-0.067022234
198	0xbe7b8c9e	-0.2456536
199	0xbddcb393	-0.107764386
200	0xbd2fe993	-0.042947363
201	0xbd8393eb	-0.064246975
202	0x3dfab103	0.122407936
203	0xbe1ffb15	-0.15623124
204	0x3e223b45	0.15842922
205	0x3dda4d15	0.106592335
206	0x3c0539bc	0.008131441
207	0xbbd7ecf6	-0.0065895272
208	0x3e8e7a7c	0.27827823
209	0x3eaf850b	0.3428119
210	0x3ee88828	0.4541638
211	0x3bfe6483	0.007763447
212	0x3dbcf6f7	0.09226792
213	0x3e3ee59e	0.1864228
214	0xbdf8bff5	-0.12145988
215	0x3dc08ef3	0.094022654
216	0x3da8e44a	0.08246668
217	0xbd0f450a	-0.03497795
218	0xbd57f97a	-0.052728154
219	0xbd81b7db	-0.06333896
220	0xbf042024	-0.5161154
221	0xbea3d876	-0.32001084
222	0xbe691d4d	-0.22765084
223	0xbe5f0ea4	-0.21782929
224	0xbd364b04	-0.044505134
225	0x3dcd879a	0.100356296
226	0xbd7221b2	-0.059114166
227	0xbd40ab3f	-0.047038313
228	0x3d8253f8	0.06363672
229	0xbd9b6e41	-0.07589389
230	0x3f1fc504	0.62409997
231	0x3f3a36d0	0.7273989
232	0x3ef38232	0.4756027
233	0x3ea7656b	0.32694563
234	0x3d90909f	0.07058834
235	0x3e456c21	0.19279529
236	0xbd1e53a0	-0.03865397
237	0xbeaf0cc5	-0.3418943
238	0xbf04c521	-0.51863295
239	0xbf15fd6a	-0.58589804
240	0xbd9f84f3	-0.0778903
241	0xbdb5643f	-0.08857011
242	0xbd0f8762	-0.03504122
243	0x3d4a1f15	0.04934605
244	0x3e003db0	0.12523532
245	0x3c88e472	0.016710494
246	0xbe0fd8c7	-0.14047538
247	0x3db2a4fd	0.08722875
248	0x3cd740be	0.026275989
249	0xbe6ed76b	-0.23324363
250	0xbe88a596	-0.26688832
251	0xbed678a0	-0.41888905
252	0xbd8228ec	-0.063554615
253	0xbe2ed3e7	-0.17073022
254	0x3d48e596	0.049047075
255	0xbd36b148	-0.044602662

critic.0.bias f4 [64]
0	0xbe2d305e	-0.16912982
1	0x3d4ca45e	0.04996144
2	0x3d07597d	0.033044327
3	0x3e1a0b04	0.15043265
4	0xbdfea470	-0.12433708
5	0x3e19fcfc	0.15037912
6	0xbc8392ea	-0.016061265
7	0x3e4c3785	0.19943054
8	0x3cc031f5	0.023461321
9	0x3c9b5161	0.018959703
10	0x3de83505	0.11338238
11	0x3d5188f7	0.05115601
12	0xbb18756c	-0.0023263348
13	0x3cd4a7e5	0.025958965
14	0x3d5da749	0.054114614
15	0x3e203a1d	0.15647168
16	0xbca587ee	-0.020206418
17	0xbd580e53	-0.052748036
18	0x3e3c33b7	0.18379103
19	0xbcb25c7c	-0.021772616
20	0x3d202ccf	0.039105233
21	0x3d64dc56	0.05587419
22	0x3e25b4c8	0.16182244
23	0x3e17b65a	0.14815655
24	0x3d7e3781	0.06206465
25	0x3dedbff0	0.11608875
26	0x3d8274bd	0.06369922
27	0xbe0de558	-0.13857019
28	0x3e10c49c	0.141375
29	0xbe04cf98	-0.12969816
30	0xbc79a8d2	-0.015238004
31	0xbe2199e4	-0.15781361
32	0xbe307f89	-0.17236151
33	0x3e33b769	0.17550434
34	0x3df44023	0.119262956
35	0xbc8b179a	-0.016979028
36	0x3dd30acf	0.10304796
37	0xbe283e5d	-0.1643004
38	0x3d6c0c3e	0.057628863
39	0x3d2ca1a8	0.042146355
40	0x3db18656	0.08668201
41	0xbe00cbf2	-0.12577799
42	0xbe2a0965	-0.16605146
43	0xbd95ff3f	-0.07324075
44	0x3c542172	0.012947427
45	0xbe115016	-0.14190707
46	0x3dd4742c	0.103737205
47	0xbe70bdc9	-0.23509897
48	0xbe09f52f	-0.13472436
49	0xbdb51c0a	-0.08843239
50	0xbe3010cd	-0.17193909
51	0x3d9e521a	0.077305034
52	0x3e93058a	0.28715163
53	0x3e174cb5	0.14775355
54	0x3cf608a5	0.030033419
55	0x3b56cd5b	0.003277621
56	0xbdcd05c4	-0.10010865
57	0x3cd97852	0.026546631
58	0x3e19732e	0.14985344
59	0xbe3afcfa	-0.18260565
60	0x3e1f05dc	0.15529579
61	0xbdfb2644	-0.12263158
62	0x3e04f09d	0.12982412
63	0x3d906b87	0.07051759

critic.2.weight f4 [128, 64]
0	0x3d8d0c6d	0.06887136
1	0xbd5811f4	-0.052751496
2	0xbcf2ea0c	-0.029652618
3	0xbd5f1f0b	-0.054472964
4	0x3d4d206a	0.05007974
5	0xbd1c10b8	-0.03810188
6	0x3d4d0507	0.050053623
7	0x3e175c05	0.14781196
8	0xbdb2f880	-0.08738804
9	0xbe03251f	-0.1280713
10	0xbd22f8dd	-0.039788116
11	0x3da10274	0.07861796
12	0xbc2f4545	-0.0106976675
13	0xbe065d79	-0.13121594
14	0xbe17d1fe	-0.148262
15	0xbd476a3e	-0.048685305
16	0x3d70143a	0.05861304
17	0xbe533515	-0.20625718
18	0x3e91103d	0.283327
19	0x3da84d2c	0.08217844
20	0x3e3ca94a	0.18423954
21	0x3d04ff7b	0.032470208
22	0xbe91033f	-0.2832279
23	0x3e0e99f4	0.13925916
24	0xbd090388	-0.033450633
25	0x3dd5f6ab	0.10447439
26	0x3b7c728d	0.0038520426
27	0xbe5051bd	-0.2034368
28	0x3ddbc64e	0.10731183
29	0x3e8c66c2	0.27422148
30	0xbe74f5a7	-0.23921834
31	0xbc45bc69	-0.012068846
32	0x3da4e81c	0.08052084
33	0x3e1b6756	0.15176138
34	0x3e0e95d4	0.13924342
35	0x3d57fd16	0.052731596
36	0xbcdb82be	-0.026795741
37	0x3e8e1a54	0.27754462
38	0x3de76a50	0.112995744
39	0xbdfe8f63	-0.124296926
40	0x3d845e56	0.06463306
41	0xbe7fb3c0	-0.24970913
42	0xbe445215	-0.19171937
43	0xbd72e7f2	-0.05930323
44	0x3dd8d753	0.10587945
45	0xbe8ec62e	-0.27885574
46	0xbc11abf1	-0.008891092
47	0xbd3686c9	-0.044562135
48	0x3da2434e	0.079229936
49	0xbdb8c209	-0.09021384
50	0xbe2fad5f	-0.1715598
51	0x3dacbb56	0.08434169
52	0xbd96f5ca	-0.07371099
53	0x3dfc6f17	0.12325876
54	0xbea126ae	-0.31474823
55	0x3d82a9e2	0.06380059
56	0xbd5918da	-0.053002216
57	0x3e13cd40	0.14433765
58	0xbefac674	-0.48979533
59	0xbe090eee	-0.13384601
60	0xbdaf1ed6	-0.08550803
61	0x3ddcabb8	0.1077494
62	0x3cd89ffd	0.026443476
63	0x3d62c330	0.055361927
64	0xbce468f8	-0.027882084
65	0x3d5c5ee8	0.053801447
66	0x3d1abe18	0.037778944
67	0xbda91c98	-0.08257407
68	0x3df501f0	0.1196326
69	0x3d76d010	0.060257018
70	0x3b218e80	0.0024651587
71	0xbd5900f4	-0.052979425
72	0xbdffce18	-0.12490481
73	0x3d95b6b0	0.073102355
74	0x3d8ed9f2	0.069751635
75	0xbd6e06a8	-0.058111817
76	0x3dff7abc	0.124745816
77	0xbd976c3a	-0.073936895
78	0xbcc95278	-0.024575457
79	0xbc871bf0	-0.016492814
80	0xbd8d9f7c	-0.06915185
81	0x3d607478	0.054798573
82	0x3cc26530	0.02372989
83	0xbd79c618	-0.060979933
84	0x3daa42a6	0.083134934
85	0xbdea8408	-0.11450964
86	0x3bf8d960	0.0075942725
87	0xbd89ed52	-0.067347184
88	0xbd3886f4	-0.045050576
89	0x3d938b8c	0.07204351
90	0x3da5b058	0.080902755
91	0x3da49594	0.08036342
92	0xbd3eaa98	-0.04654941
93	0xbdb57eb0	-0.08862054
94	0x3dfbfb1a	0.12303753
95	0x3b916440	0.0044369996
96	0xbdec88b0	-0.115495086
97	0xbdda14da	-0.10648508
98	0xbdd390f0	-0.10330379
99	0xbdd4a8d0	-0.10383761
100	0xbdd28106	-0.102785155
101	0xbd8d3560	-0.06894946
102	0x3d417880	0.04723406
103	0x3ca608a0	0.020267785
104	0x3dc40b4e	0.09572469
105	0xbdd86008	-0.105651915
106	0xbddfd5ae	-0.10929428
107	0xbdf8903a	-0.12136884
108	0xbc475f30	-0.012168691
109	0x3d5cc428	0.053898007
110	0xbb105d00	-0.0022028089
111	0xbd63f5dc	-0.05565439
112	0xbd4fbe4c	-0.05071859
113	0x3cf3a800	0.029743195
114	0xbd145d40	-0.036221743
115	0xbd80d7d8	-0.06291169
116	0xbd613d18	-0.054989904
117	0xbdeebc6c	-0.11657032
118	0xbda261ce	-0.07928811
119	0x3d4820e0	0.048859477
120	0x3d40c014	0.04705818
121	0xbdd98aae	-0.10622154
122	0xbdb80d40	-0.08986902
123	0xbdef0120	-0.116701365
124	0xbda6da5a	-0.08147116
125	0x3d5814b0	0.052754104
126	0x3de8cf84	0.113677055
127	0x3d2254a8	0.039631516
128	0xbcfc3919	-0.030788945
129	0xbd6d3964	-0.05791606
130	0xbdcdec2e	-0.10054813
131	0x3cc620d5	0.024185577
132	0xbd323d93	-0.043515753
133	0x3c8594b5	0.01630626
134	0xbd0e5ef8	-0.034758538
135	0xbdce7a98	-0.10081977
136	0xbde56c8b	-0.112023436
137	0x3dac63da	0.08417483
138	0x3daf5082	0.085602775
139	0x3c977f34	0.018493272
140	0x3b633125	0.0034666744
141	0xbd9a170c	-0.07523927
142	0x3c9f288d	0.019428516
143	0xbd9a7f1b	-0.07543775
144	0xbda4fdfa	-0.08056255
145	0x3d328784	0.04358627
146	0xbdf327f0	-0.11872852
147	0x3c1808f1	0.009279476
148	0x3c720cfc	0.0147736035
149	0xbda65ed5	-0.081235565
150	0x3d9bc819	0.07606525
151	0xbddf1641	-0.108929165
152	0xbde11c86	-0.109917685
153	0x3d0dbeee	0.034605913
154	0xbd7f03c9	-0.06225947
155	0xbdaab0d3	-0.08334508
156	0x3d5226a2	0.051306374
157	0x3d0d372b	0.03447644
158	0x3da0159e	0.07816623
159	0xbc873bd8	-0.016508028
160	0x3d74b03f	0.059738394
161	0xbd59201e	-0.053009145
162	0x3dede5fa	0.1161613
163	0xbd1f860d	-0.0389462
164	0xbdb5172f	-0.088423125
165	0xbda36933	-0.079790495
166	0xbe02995b	-0.12753813
167	0xbde8634f	-0.113470666
168	0xbd8411d9	-0.06448717
169	0x3d62b3bc	0.05534719
170	0xbd982d34	-0.07430497
171	0x3ca263d2	0.019822989
172	0x3db37450	0.08762419
173	0x3d8395a8	0.06425029
174	0xbdd03b07	-0.101675086
175	0x3d94169c	0.07230875
176	0x3d411a02	0.047143944
177	0x3d457c4a	0.048214234
178	0x3b0ef5d3	0.0021814003
179	0x3dcc4692	0.09974398
180	0x3c4c1ea2	0.012458475
181	0xbdd5d17f	-0.10440349
182	0x3d270941	0.04078031
183	0xbbc630e5	-0.006048309
184	0x3de0a2f8	0.10968584
185	0x3ca8a0c3	0.02058447
186	0x3bc63e02	0.0060498724
187	0xbccdbf57	-0.025115652
188	0x3d025578	0.03181979
189	0xbcacd7a8	-0.021098927
190	0xbc9408aa	-0.018070538
191	0xbdf8f4da	-0.12156077
192	0xbd639d92	-0.055570193
193	0xbbd38754	-0.0064553414
194	0x3c3c0b6a	0.011477331
195	0x3d7cb38b	0.061694663
196	0xbee48022	-0.44629008
197	0x3e3d9e2d	0.1851737
198	0x3cde05c2	0.027102355
199	0xbce94ea4	-0.028479882
200	0x3da15a3a	0.078785375
201	0x3d8ea38d	0.069647886
202	0xbdd0c6f3	-0.101941966
203	0xbe0b5f75	-0.13610633
204	0xbe593ad8	-0.21213853
205	0x3cabe00e	0.020980861
206	0xbe4bbc9d	-0.19896169
207	0x3e5353ab	0.20637386
208	0xbd399f89	-0.04531816
209	0x3b98b0e0	0.004659757
210	0x3df6bc33	0.12047615
211	0x3e4a1d1a	0.19737664
212	0xbe6c0d6a	-0.23051992
213	0xbe90843e	-0.28225893
214	0x3d673fd0	0.05645734
215	0xbd9e03cb	-0.07715567
216	0xbcc093db	-0.023508003
217	0x3d39cabc	0.04535936
218	0x3dad806d	0.08471761
219	0xbc028058	-0.00796517
220	0xbe1b41cc	-0.15161818
221	0x3e4f5b4b	0.20249669
222	0xbda38309	-0.07983977
223	0x3de57528	0.112039864
224	0x3d411719	0.04714117
225	0xbd8988e0	-0.0671556
226	0x3d8122f5	0.06305496
227	0x3dde495d	0.10853837
228	0x3c44ec3d	0.012019214
229	0xbe977e52	-0.29588562
230	0xbddc8a6f	-0.107685916
231	0xbdd89ce6	-0.10576801
232	0xbcf5e362	-0.030015651
233	0xbcc7d70d	-0.024394536
234	0x3b88f67b	0.0041797734
235	0x3c682fd4	0.014171559
236	0x3c95bdb2	0.01827893
237	0xbd0a108b	-0.033707183
238	0xbda02530	-0.07819593
239	0xbdf33bdd	-0.118766524
240	0x3ebbb9c5	0.36665168
241	0x3ee7e338	0.45290542
242	0x3dc66c7f	0.09688663
243	0x3e510f90	0.20416093
244	0xbe75f921	-0.24020816
245	0xbe038b58	-0.12846124
246	0xbda5cdef	-0.08095919
247	0x3d459332	0.04823608
248	0xbd34a77e	-0.044105045
249	0x3dc6937d	0.096961
250	0xbd455616	-0.0481778
251	0xbd8c7d7d	-0.068598725
252	0x3e3327a0	0.17495584
253	0x3db220ba	0.08697648
254	0x3d44819c	0.047975168
255	0xbd0fad38	-0.035077304

critic.2.bias f4 [128]
0	0xbdc1e4b0	-0.09467447
1	0xbd55d794	-0.052207544
2	0xbd995a2a	-0.074879006
3	0x3d5345f8	0.0515804
4	0xbdc7d9d0	-0.09758341
5	0x3df1b477	0.11801999
6	0x3d2cf796	0.042228304
7	0xbc6e5c1c	-0.014548328
8	0x3c11e220	0.00890401
9	0xbd6419cd	-0.055688668
10	0x3cfae526	0.030626845
11	0x3ba1b7fe	0.0049352637
12	0x3ddce013	0.10784926
13	0x3d147a58	0.03624949
14	0xbd89db03	-0.06731226
15	0x3d1754d5	0.036946137
16	0x3d65f312	0.056140013
17	0xbdfab93c	-0.12242362
18	0x3ddbdb3a	0.107351735
19	0xbd767323	-0.060168397
20	0x3e01933e	0.12653825
21	0xbd570d15	-0.05250271
22	0x3dd061c6	0.10174899
23	0x3ccae969	0.024769502
24	0xbd34eefc	-0.044173226
25	0x3b07669e	0.002066053
26	0xbd4b7508	-0.049672157
27	0x3d82b922	0.063829675
28	0x3d7583d2	0.059940167
29	0xbcbf3573	-0.023340916
30	0xbd92d3d4	-0.07169309
31	0xbe1ecf51	-0.15508772
32	0xbcdbf6dd	-0.026851112
33	0x3e2513d5	0.16120847
34	0xbd64b0a0	-0.055832505
35	0xbd12194c	-0.035668656
36	0xbe0a5008	-0.13507092
37	0xbe06d983	-0.13168912
38	0x3d392656	0.045202576
39	0x3b9c7bb6	0.0047754897
40	0xbd311d81	-0.043241028
41	0x3d5621f9	0.052278493
42	0x3d1829fd	0.03714942
43	0xbd973533	-0.07383194
44	0xbe183ce2	-0.14866975
45	0x3d6847c4	0.056709066
46	0xbd7c884f	-0.06165343
47	0x3cf14a24	0.029454298
48	0xbd926772	-0.07148637
49	0xbc86b7b3	-0.016445016
50	0x3de18969	0.11012537
51	0xbdcc8166	-0.09985618
52	0xbccd3b07	-0.02505256
53	0x3e151222	0.14557698
54	0xbd26c691	-0.04071671
55	0x3e06344c	0.13105887
56	0x3d74c947	0.059762266
57	0xbaa08373	-0.0012246206
58	0xbd286523	-0.041112076
59	0xbdfa1487	-0.122109465
60	0xbde979e9	-0.11400206
61	0x3da31638	0.07963222
62	0xbc7e2d01	-0.015513659
63	0x3dbe75f7	0.09299844
64	0x3dfc24ad	0.12311683
65	0xbd825628	-0.06364089
66	0x3c7f8925	0.015596663
67	0xbd334f99	-0.043777082
68	0x3d5578e1	0.052117232
69	0x3b8361d6	0.0040094657
70	0x3d8e1fa1	0.069396265
71	0x3b070106	0.0020599975
72	0xbd949ea7	-0.07256823
73	0x3cc228d2	0.023701105
74	0x3db9914b	0.090609156
75	0x3db3aac2	0.08772804
76	0x3dacceef	0.08437907
77	0xbc5f1eac	-0.013618153
78	0xbd6a299e	-0.057168595
79	0xbced5d66	-0.0289752
80	0xbd4357ec	-0.04769127
81	0xbdc9967f	-0.09843158
82	0x3b68984d	0.003549117
83	0xbe0b12c2	-0.13581374
84	0xbd54895e	-0.051888816
85	0x3d1177b4	0.03551455
86	0x3c0636c6	0.00819177
87	0xbdd2b3c2	-0.10288192
88	0x3df3245b	0.11872169
89	0xbd7c1981	-0.06154776
90	0xbdacf29f	-0.08444714
91	0xba077e9a	-0.00051687064
92	0xbd63af97	-0.055587377
93	0xbdb18b8c	-0.086691946
94	0x3d0f4970	0.034982145
95	0x3d98ca8b	0.07460507
96	0xbe022056	-0.12707648
97	0x3da29335	0.07938234
98	0xbce3379f	-0.027736483
99	0xbdd69fcc	-0.104796976
100	0xbe1a8c1a	-0.15092507
101	0xbd109d59	-0.03530631
102	0x3cb31d96	0.021864694
103	0xbd024bfa	-0.03181074
104	0x3cfa60dd	0.030563766
105	0x3d760095	0.06005915
106	0x3e279de7	0.16368829
107	0xbdc572d8	-0.09641045
108	0xbdbdcad3	-0.09267201
109	0x3cc894c5	0.024485001
110	0xbdccbf1c	-0.09997389
111	0xbc996825	-0.018726418
112	0x3d81d99e	0.06340335
113	0x3d47ecf6	0.048809968
114	0xbe1ef5c5	-0.15523441
115	0x3da472b1	0.08029688
116	0xbe04324c	-0.12909812
117	0x3d891868	0.06694108
118	0x3a200115	0.0006103677
119	0x3d4f250d	0.050572444
120	0x3d9c5b23	0.076345704
121	0x3df53c34	0.119743735
122	0x3e023053	0.12713747
123	0x3d4a4215	0.049379427
124	0x3c7f3f59	0.015579068
125	0xbccff5d9	-0.025385784
126	0x3d9e7af2	0.07738294
127	0xbdef6159	-0.116884895
